Task_2/model_state-epoch-20-val_acc-0.9619.pth (torch, 510719 bytes, 10 tensors)

conv1.weight f4 [32, 3, 3, 3]
00000000: c4e7 54be 99cc b4bc 6564 8ebd f600 d53d
00000010: b0f8 453e cd37 463e 1e9b d4bd 63e0 993d
00000020: 04c6 ec3d f0cf cfbd f809 fdbc 5185 80bd
00000030: 4051 073e b5f6 12be ddb6 103e 0c56 253e
00000040: 82cf 7d3d d24e 49be 639d a03d fc00 e13c
00000050: e99d 013e 8a36 33bd 9dc4 b93d 5659 06bd
00000060: 984e c5bd 2fd3 fdbd 000d 43be 23ff 793e
00000070: 79b6 c53d 8e72 14be b727 b5bc e054 24be
00000080: 7b26 05be 7aa4 37be cb45 f0bd 7a5f 09bd
00000090: 2835 42bd 501a 92ba e3b2 503d 3c0d 343e
000000a0: 9b6e 70bd 61d9 c83d fbbc d33c 58bc 433e
000000b0: 7bcc 42bd 4440 063d 17a4 90bd e9cd 4bbd
000000c0: 569e e5bd a176 683d fbee 9d3d cb76 bbbd
000000d0: 37c5 703d 0bf2 b6bc 1f57 7e3d f797 373d
000000e0: 3c1f a6bd db89 0dbe f566 193e d976 ed3d
000000f0: c35f 373e 37c2 bd3d 2245 40bd 0407 113e
00000100: a164 103d 43fc 00bd 01be 96bc 25b1 643d
00000110: 8fb7 5abd 3c93 193e f6da 5a3c 0ebe b43b
00000120: 2a01 66bd 4351 f5bd f6b2 64bd e95c ae3d
00000130: 1075 40be e12a 5dbe 58f0 b2bd 46a2 f13c
00000140: 39c0 14bd 3250 37be dd6e b0bc 944b 043e
00000150: 9932 893d b9cf bdbb cbfd 683e 691b dfbd
00000160: 0639 e53c 5055 63bd 45dc 0fbe 06ad 87bd
00000170: 5f74 153e cb0c 8cbd c162 c73c 7bb1 ce3d
00000180: 014f 1abe 7de2 22bd 1299 173d 085e abbb
00000190: 8a01 3b3e 5628 733e bc92 1dbe 0122 063e
000001a0: 446f 763c 3f65 0ebe 4c08 e3bd a134 bebd
000001b0: 39b9 c8bd 16e0 b73d 8cc3 023e 962a 71bd
000001c0: 8ea7 0c3e d9b0 7f3d 4672 be3d 622e 893c
000001d0: b79e 09bd e012 b33d 9e6c f2bd 2139 6dbc
000001e0: a40b 093e cf33 073e fb23 46bd 7ff5 9cbd
000001f0: 7f72 eebd d6fb 2bbe cd44 8d3d 6f52 67bc
00000200: 5be4 81bd 1c3a 063d ca49 e8bd 6315 a53d
00000210: f3ba 3b3e b026 b53b 8396 10be 6810 dbbc
00000220: 464b 5c3e 4f00 6a3e 7862 26bc c3c1 b5bc
00000230: 6e29 09be 8bf3 b0bd 3da9 2b3e 6079 2a3d
00000240: de35 cb3d 2bad 5ebe 1a27 00be 8f8f 0f3d
00000250: 8b22 1bbe 079a 51be 47c6 783d 3348 debd
00000260: 90cd 4d3d 9b5c 0cbe a50a 223e 8cde 323b
00000270: 972d 7e3e ecb8 57bd 20c7 17bd f061 05be
00000280: 1744 abbd aa0a 7b3e ecf5 343e 7cc0 013e
00000290: 4172 28be e36a 1bbd d75f 1dbd adba 83be
000002a0: 7424 4bbd dd81 dbbd 4797 c63b fd85 7cbd
000002b0: 3d6a 2b3e 84bc adbd b4d4 323e e60f ffbd
000002c0: 5f4c f93d 3529 58bb b2c1 193e 69c2 b53d
000002d0: 4651 f93d 31ff d73d e6e6 1cbe 9fd7 773e
000002e0: 72f3 0bbe 77f0 46bd 9bba b2bd e9cf fabd
000002f0: e2a3 00be 3217 1f3d 06cf 8abe af75 2b3e
00000300: c77c c53d 5112 f3bd 4e32 47be e223 e73c
00000310: fba9 58be abc4 703d ffaa f93c bd88 dcbd
00000320: 7e7b cc3d 1080 db3d 9c1e 893d 2271 e93b
00000330: 1fbb 66bd c3d5 113e 640d b03d 2f57 ff3d
00000340: d37c 73be 1857 7d3e bc23 503c f703 bd3d
00000350: e4c3 39bd a101 97bc 6fea 99bd 904f b5bd
00000360: c4ed 7fbd 0a50 d43d 5fe9 07be 99be c33d
00000370: 2273 25bd 133b 50bd 1d39 8d3d 485d 303e
00000380: 27fa 09bd 6f14 b93d 2414 bfbd 8135 b5bd
00000390: 386b 4ebb 866a 34be 617e 5ebe 8d95 2d3e
000003a0: 528c fa3d e4f4 0ebe f66c 5ebc a429 563d
000003b0: 6403 dbbd f21d 1c3e 74c8 12bd eba4 12be
000003c0: 713d 393e 2c36 2c3e d484 2f3b e41d 0e3c
000003d0: a31a eebc 7871 223e 0f9e b13d f156 5b3d
000003e0: f20c bc3c ff8f c6bd b59c 21be 4e9a e6bc
000003f0: 9ca0 e5bc d64f 84bd e371 81bd cabd 41be
-0.20791537 -0.022070216 -0.069527425 0.10400574 0.19333148 0.19357224 -0.10381149 0.075135015
0.11561206 -0.10147083 -0.030888543 -0.06275428 0.13214588 -0.14351924 0.14132257 0.16146106
0.061965473 -0.19658974 0.07842519 0.02746629 0.12657894 -0.043753184 0.09070704 -0.03280004
-0.09634131 -0.12393796 -0.19047928 0.24413733 0.096539445 -0.14496824 -0.022113664 -0.16048002
-0.1300296 -0.17933837 -0.11732062 -0.03353832 -0.047413975 -0.0011146758 0.05095185 0.17583174
-0.05869923 0.09807087 0.025846949 0.19114816 -0.04755829 0.032776132 -0.07062548 -0.049756918
-0.11211841 0.05675376 0.077115975 -0.09153517 0.05878183 -0.022332212 0.062094804 0.04482266
-0.08111426 -0.13822119 0.14980681 0.11594934 0.17907624 0.09265559 -0.04694093 0.14162832
0.035252217 -0.031490576 -0.018401148 0.055833 -0.05339771 0.14997572 0.013357868 0.0055158203
-0.056153454 -0.1197839 -0.055834733 0.08513815 -0.18794656 -0.21598388 -0.08737248 0.029496323
-0.03631613 -0.17901686 -0.021537239 0.12919456 0.06699104 -0.0057925847 0.22753064 -0.108939
0.027981292 -0.055501282 -0.1404887 -0.066247985 0.14595173 -0.068383776 0.024339082 0.100924455
-0.150692 -0.039766777 0.037011214 -0.0052297153 0.18262306 0.23745856 -0.15388006 0.13098909
0.015041176 -0.1390581 -0.11085567 -0.09287382 -0.098009534 0.08978288 0.12769908 -0.058878504
0.13735792 0.062424514 0.0929914 0.01674575 -0.033598628 0.087438345 -0.11837123 -0.014478953
0.13383347 0.13203357 -0.048374157 -0.07664012 -0.11642932 -0.16795287 0.06897888 -0.014118775
-0.063423835 0.03277026 -0.11342199 0.0806072 0.18333034 0.0055282936 -0.14119916 -0.026741222
0.2151309 0.2285168 -0.010155313 -0.02218712 -0.1339471 -0.08640202 0.16763778 0.04161966
0.09922384 -0.21745746 -0.12514916 0.035049018 -0.15149896 -0.20468913 0.060735967 -0.10853615
0.050244868 -0.13707201 0.15824373 0.0027293293 0.24822079 -0.05266659 -0.037055135 -0.13025641
-0.083625965 0.24515787 0.17671937 0.12671083 -0.16449834 -0.037943732 -0.038421478 -0.2572836
-0.04959531 -0.10718129 0.006060514 -0.06165122 0.16739745 -0.08483222 0.17463952 -0.12454204
0.1217277 -0.0032983546 0.15015295 0.088749714 0.12173705 0.10546721 -0.15322456 0.24203347
-0.13667086 -0.04856917 -0.087269984 -0.12246687 -0.12562516 0.03884048 -0.2711107 0.16744111
0.0964294 -0.11868728 -0.19452783 0.028215352 -0.21158592 0.058781307 0.030477045 -0.10768268
0.09984492 0.10717785 0.066952914 0.007124082 -0.056330796 0.142417 0.08596304 0.12467801
-0.23778085 0.24740255 0.012703832 0.09229272 -0.04535283 -0.018433394 -0.07515418 -0.08853066
-0.06248261 0.10366829 -0.13272618 0.09557838 -0.040393002 -0.050837588 0.06895659 0.17223084
-0.03368583 0.090371005 -0.093300134 -0.08848096 -0.0031497013 -0.1761876 -0.21727897 0.1695158
0.12233795 -0.13960606 -0.013575783 0.052285805 -0.10694006 0.15245798 -0.0358357 -0.14320724
0.18089844 0.1681754 0.0026782053 0.008674119 -0.029065436 0.15863597 0.086727254 0.05354971
0.022955392 -0.09695434 -0.15782435 -0.02814975 -0.028030686 -0.0646054 -0.0632055 -0.18920055

conv1.bias f4 [32]
00000000: e884 c4bd 9437 633e 1f16 35be ad5a 34bd
00000010: 312e 3abd 5bfe 9ebd 5bc8 af3d 6d54 273e
00000020: ef42 aa3a 2c53 753d 58c6 1c3e 2edf 283d
00000030: a60c 95bd aeb9 b23d e5c0 16be d97b 5dbe
00000040: 3e10 6dbd 6276 4d3e 21d5 4fbe 7150 7abd
00000050: 8ce9 9bbc db6c 01bd 69a8 7cbe abe0 ddbd
00000060: c7a7 b3ba 8578 09be 9ce7 273e 6bdd 1fbc
00000070: a986 6abe 1da6 c43d 7e29 66be 331e c53d
-0.09595662 0.2218917 -0.1768422 -0.044031788 -0.045454208 -0.07763358 0.08583137 0.163408
0.0012989918 0.059893772 0.15310037 0.041228466 -0.07277803 0.08726822 -0.14722021 -0.21629275
-0.057876818 0.2006469 -0.20296146 -0.06111187 -0.019032262 -0.031597953 -0.24673618 -0.10833868
-0.0013706618 -0.13424881 0.16396946 -0.00975738 -0.22902931 0.09601996 -0.22476766 0.09624901

conv2.weight f4 [64, 32, 3, 3]
00000000: ec33 15be 0ddb 22bc ea2d 9b3c 725e dfbd
00000010: e682 efbb e02e 7d3c 5707 2a3d 926d bc3c
00000020: 9711 013e 7541 a93d c45d 883c b1dc 20bd
00000030: b94b 203d 0339 723d a564 323d dab6 b6bd
00000040: c608 54bd ac91 ebbd d182 8bbd 7b69 a6bd
00000050: 748d 66bd c098 f4bb 0cde d4bd 3e78 fabc
00000060: 87f1 90bc bb1b 813d 67b0 143d e240 a0bc
00000070: b492 273c f5c5 9e3d d9d9 fa3d 61c9 803d
00000080: fdfe 0e3d f580 c4bd e07b a0bd 54e1 10bb
00000090: be88 fe3b b948 cc3c 43bd 693d ce27 32be
000000a0: d03e babd 87f1 e5bc d9cd a83d 6933 19bd
000000b0: 5d28 c63d 27b8 d53d 3d84 2a3e bfa8 4f3d
000000c0: 1ba3 dabd 497b 73bb afa4 aa3c ee87 cfbd
000000d0: b65d 3abd 7d47 fbbc 6269 853d 0431 9abd
000000e0: 594e 2cbb 28af 96bd 4449 2a3d 3099 a53d
000000f0: 6a79 ccbc ef0c 8cbd 2702 ccbd 2cd4 6eba
00000100: 49b6 81bc 3254 85bc 321e 463d a4ae 313c
00000110: 3e72 d93d 71de 38bc 2140 543b 83c2 10be
00000120: ae84 5ebc 33d9 913d c8e3 8b3d d35f 38bd
00000130: 5ac4 183d 2402 c53c 731e 45bc fc13 3dbd
00000140: 52ba c6bc 8f58 a43d 1917 3fbd c58a 09bd
00000150: aee9 f43c db0e 0ebd 844f 44bc 0a38 4e3d
00000160: 0d1b 823c 5f2a dabc e22b 653d d5b2 cfbd
00000170: 1223 10bd b518 3e3c ee04 ae3d 658b 263d
00000180: d2b1 403c e097 853c b03f e4bd 3ca0 403d
00000190: e93c c83d d10d 62bd 016b 823d 6c92 f33c
000001a0: 39e3 933c 146f 1c3c 8586 dabc 8096 ac3c
000001b0: 4063 9c3c f732 8fbc bf75 8e3d f027 e7bd
000001c0: 828f 88bd 895b 953d 3270 423d 2fca 643d
000001d0: 28fc 163e ae14 ed3b 3d6c 0a3d 3908 543b
000001e0: 712f 993b a0f8 5fbd d6ae 3b3c 2244 ea3d
000001f0: 4a3e 10bd 747e 15bd 1fae 2f3b 50e9 1539
00000200: 35f9 acba 5554 18be 528e 94bc d0d6 0a3d
00000210: ad10 39bd 1d95 1abd 8b4b 353d 0e34 793d
00000220: 23d4 72bd 4d6e 513c 19c1 15bd 3b64 eebc
00000230: 8478 28bd de84 1e3d a3b1 4abd e32f a73d
00000240: 4caf 8d3d 02ea 863c 2760 2e3d 6aa9 dd3d
00000250: a360 203e 2a78 503d 8983 2cbd 2196 0abe
00000260: 8cc0 36be 80ca 873d 5da5 2cbd 08ee 10bd
00000270: e0c2 3e3d bc18 983d 2965 3b3d 9974 6fbd
00000280: f92b 8dbd 4e8d 97bd f50e d23d 7286 fabb
00000290: d96c 8abc a7ac a23c 6bc0 2ebc 572b f43c
000002a0: 8dab b5bc 8202 5c3d e174 d9ba a0e1 44bc
000002b0: 027e 3c3d 43de ce3b 826f 1ebe 20b4 fd3a
000002c0: 23bd ae3d 626a b7bd aed9 c33d d0c1 4c3c
000002d0: 35b5 bcbd cc88 0b3c 322c d83d 11a5 f1bd
000002e0: 4650 293d 6aa2 4bbb 764f 6cbc e493 a3bc
000002f0: 82b6 9f3c 5854 333d 9478 fd3c 581a 9e3d
00000300: 8b24 8fbd a53b cb3d b80f ad3d 1646 30be
00000310: ccc8 7bbe 0dac 17be ad56 743d bd4f 603c
00000320: 5241 a6bd 15e0 d53c 34b1 f73c e6db d3bb
00000330: 94eb 01bd 7383 cebb 7f08 cfbc 833e 18be
00000340: 0951 5f3c cad7 2c3d 8ac0 b1bc 2867 8abd
00000350: 7e3f 453c dc08 94bc f221 2c3d 1376 793d
00000360: dd49 21bd 54df 533d b5ec 2e3c 61fc 0a3d
00000370: b423 293c 198d 303b 5eec 92bd 975e 0dbc
00000380: 139b 883d 485d b6bc 445e d03c 4dc1 7d3d
00000390: f7ea a4bd cfaf b6bc 0c54 ba3d 9b85 babd
000003a0: f417 af3c fbb0 c03b f69f e13d 71e4 913c
000003b0: fa8d bc3d cc22 9e3b 883d 403d 05eb ae3d
000003c0: 4ece c4bd c533 bfbd 0db7 c1bd b10a 88bc
000003d0: 412e 4f3d c53e 56bc 7e18 2fbc 25c7 693c
000003e0: 5cfe fe3c ec1b 9ebc 417a 12bb aa49 90bd
000003f0: d695 6b3d 9e5e 25bd d6ef e2bd d4d7 ce3c
-0.14570588 -0.009939921 0.018942792 -0.10906686 -0.0073093055 0.01545307 0.041510906 0.023001466
0.12604366 0.08264438 0.016646273 -0.039272968 0.039134715 0.0591364 0.043553013 -0.08921595
-0.05176618 -0.11502394 -0.068120606 -0.081255876 -0.056287244 -0.0074644983 -0.103939146 -0.030574914
-0.017693294 0.06304117 0.036301043 -0.019562189 0.010227848 0.07752601 0.122485824 0.0628841
0.034911145 -0.09594909 -0.07836127 -0.0022106962 0.007767766 0.02493702 0.05706526 -0.17397997
-0.09094012 -0.02806927 0.08242387 -0.037402544 0.096756674 0.10435515 0.16652007 0.05069804
-0.10675641 -0.003715234 0.02083048 -0.101333484 -0.045499526 -0.030673737 0.06514241 -0.0752888
-0.0026291816 -0.07357627 0.041573778 0.08085859 -0.024960238 -0.068384044 -0.09961348 -0.00091105956
-0.01583399 -0.016275499 0.04836864 0.01084486 0.10617493 -0.011283503 0.0032386857 -0.141367
-0.013581438 0.071215056 0.06830555 -0.04501326 0.03729663 0.024048872 -0.012031185 -0.046161637
-0.024258766 0.08024704 -0.046652887 -0.033579607 0.029896583 -0.034682136 -0.011981849 0.05034641
0.01588204 -0.026631532 0.055950053 -0.101415314 -0.035189696 0.01160257 0.08497034 0.04066028
0.011761146 0.016307771 -0.1114496 0.04702781 0.09777243 -0.055188958 0.063680656 0.029732905
0.018052684 0.009547967 -0.026675472 0.021067858 0.019090295 -0.017480357 0.06956052 -0.11286914
-0.06667997 0.072928496 0.04747028 0.05585688 0.14744627 0.007235131 0.03379463 0.0032353534
0.004674845 -0.054680467 0.011455258 0.114387766 -0.035215653 -0.03649755 0.0026806665 0.00014296663
-0.0013196828 -0.1487592 -0.01813427 0.033896267 -0.04518192 -0.03773986 0.044261497 0.06084066
-0.05928434 0.012782645 -0.036561105 -0.029100528 -0.041130558 0.03870093 -0.049485814 0.081634305
0.06918201 0.016469005 0.042572167 0.10823329 0.15661864 0.050895847 -0.04211763 -0.13533832
-0.17846888 0.06630421 -0.04214989 -0.035383254 0.046572566 0.07426593 0.04575077 -0.058460806
-0.06893153 -0.073999986 0.10256759 -0.0076454217 -0.016897606 0.019857718 -0.010665993 0.029805822
-0.022176528 0.05371333 -0.0016590619 -0.012016684 0.046018608 0.0063131168 -0.15472224 0.001935605
0.08532169 -0.08955838 0.095630035 0.01249738 -0.0921425 0.008516502 0.105553046 -0.11799062
0.04133632 -0.0031072148 -0.014423242 -0.01996798 0.019496206 0.04378161 0.030941285 0.077198684
-0.06989392 0.09923486 0.08450264 -0.17214236 -0.24588317 -0.14811726 0.059652973 0.013690886
-0.081179276 0.026107827 0.030235864 -0.006465423 -0.031718805 -0.006302291 -0.025272606 -0.14867596
0.01363016 0.04219798 -0.021698255 -0.06757957 0.0120390635 -0.01807063 0.04202456 0.06090362
-0.039377082 0.051726654 0.010676553 0.033932094 0.010323454 0.002693957 -0.0717399 -0.008628509
0.06670203 -0.022261277 0.025435574 0.061951924 -0.080526285 -0.022300629 0.09098062 -0.091075145
0.021373726 0.0058804727 0.11016838 0.017809125 0.092067674 0.0048259255 0.04693368 0.0854092
-0.09609662 -0.09336046 -0.09458742 -0.01660666 0.05058122 -0.013076489 -0.010686992 0.014268671
0.031127147 -0.019300424 -0.00223507 -0.070453 0.05751594 -0.040373437 -0.11080901 0.0252494

conv2.bias f4 [64]
00000000: 07fe 2abe 8f4d c9bd d5bc a63d 9abe cd3d
00000010: bd53 90bd e1fc 12bd 3d1b 6dbd 4e76 e1bd
00000020: 3680 923d 19d4 933c e0e1 5bbd 7a56 a4bd
00000030: 9aea 143d 0237 86bd 35ee a23b 16d4 27bd
00000040: 4485 403d 5348 6bbd 5dce 6bba 0309 81bd
00000050: 3946 6dbd 6ca9 013e 7651 873d e55d b93c
00000060: 7475 bbbc df34 513c 7a2c 4a3d 137e 143e
00000070: 4b67 4d3c f1a5 103e dfa8 72bd e6f1 dabd
00000080: 2bc7 913d a514 733c 1ed4 8d3d bd0d 2fbc
00000090: f37a b8ba 43fa 543d dc0f 93bd dade e3bc
000000a0: 5254 623d ee06 02bd f9e4 393c dcce 44b9
000000b0: 802c dd3c 5d94 76bd 3210 18be b391 e9bb
000000c0: eb1e 103d 06d4 343e 4dab 0abd 0dd6 9cbc
000000d0: 6e3f 853d 4a34 293e b710 dc3c e9c2 d2bc
000000e0: 9839 463c b94d 38be 33eb b2bd 1b67 1ebd
000000f0: 55ed 8dbc 72c9 ee3d b738 73bd e845 c83d
-0.16698466 -0.09829246 0.081414856 0.1004612 -0.07047222 -0.035885695 -0.057887305 -0.11008893
0.071533605 0.018045472 -0.053682208 -0.080243066 0.036356546 -0.06553461 0.004972244 -0.040973745
0.047002092 -0.05744202 -0.0008995289 -0.06300547 -0.057928298 0.12662286 0.06607334 0.02262778
-0.022883154 0.012768953 0.049358822 0.14501218 0.012536834 0.14125802 -0.05924308 -0.1069067
0.071180664 0.014836465 0.06925224 -0.010684428 -0.0014074728 0.05199648 -0.07180759 -0.027816225
0.055256195 -0.03174489 0.011346095 -0.00018769078 0.026998758 -0.060200084 -0.14849928 -0.0071279644
0.035185736 0.17659006 -0.03385477 -0.019145036 0.06506239 0.16523853 0.026863439 -0.025727706
0.012098692 -0.17998399 -0.08736267 -0.038672548 -0.017325083 0.116595164 -0.05938026 0.097789586

conv3.weight f4 [128, 64, 3, 3]
00000000: a14e efbd cdf2 4ebc d264 16bd 0f85 53bc
00000010: 7ef5 52bc 23ef a2bd c6f0 603a 7030 49bd
00000020: 8206 1ebc 1f1b 03bd debc 5abd a19e e6bc
00000030: 9274 8a3d 8626 71bc ff39 80bd 5202 093c
00000040: 46a9 00bd 5b48 94bb 6b16 97bd 087b 883c
00000050: b563 f33c 2120 20bd c4b9 7d3c 6641 253d
00000060: a3ab b83d 69bb 3f3d f4b1 b33c 7d99 f5bd
00000070: 2272 ac3c 6dcf 953c 6557 8abd 3a9c cfba
00000080: ba05 173d 1a88 883d ed5a 9abd bf7c 7ebc
00000090: 93f3 a9bc 90a8 ab3c 9b85 77bb 7446 003d
000000a0: 00af 1a3c 816d c13c 8886 2d3d d20d 17bd
000000b0: d454 c5bb e9df c1bc 7970 50bd d1fd 863d
000000c0: ce82 e63d 8896 83ba 06c0 4dbd 4ac8 123c
000000d0: f95c 6dbd afb0 16bc 8f6b e53b abac 0a3d
000000e0: 4b21 f33c ab34 813d 6048 a2bc e11a a9bc
000000f0: 5a47 213d 6b07 0dbd 8763 37bd 592c ad3c
00000100: 7b35 4fbd 2b38 0b3c 0978 233c faf8 21bd
00000110: 5c5a 7b3d c12d 05bc d68f 0ebd 53c3 933d
00000120: d6d0 22bb 80a5 a13d 88bb 18bc 9cc0 f6bb
00000130: ed72 fc3c 82c0 023c e389 0fbc 0613 fcbc
00000140: e97c d9bc 65cb 1ebe bb9c 61bd a5dc babd
00000150: b4f5 e4bc ecd3 e2bd 4d22 91bc 1729 d73d
00000160: 0bfb e6bc 2b41 3bbb beaa 4fbd a0e0 86bd
00000170: ec95 1cbd ec3c 433d 75b9 8bbc 6fd2 bb3b
00000180: 6474 633d e6f3 f83c 58eb a53b 287c edba
00000190: 8168 773b 2f6a d0bc 483d 563d b4cf 8bbd
000001a0: c9a7 57bd 8829 d13c eecb 23bd d3f8 333d
000001b0: 3cce 15bd 2bc0 27bd 6823 95bd 9bd5 0c3c
000001c0: c473 36bd e9e4 a2bc 04af 873d 3705 3a3b
000001d0: fffb c43c 94d5 09bd 4431 bd39 2bba babd
000001e0: f8a7 0a3e 147b aabd a4b9 14bd 31ed dfbd
000001f0: 4873 eabc 35e2 1e3c 06e6 09be 0c12 d4bd
00000200: f072 2fbd 28e8 c7bb e9e8 013b e04e 14bc
00000210: 56fb 4e3d eaae a23d 93e6 943c 7f4c 6abd
00000220: 1adc 7cbd 8642 11be 615d 1cba c5d0 82bd
00000230: f5b2 f5bc be14 253d 34b7 52bd 8a42 dabd
00000240: b509 aebb 7bb1 063d dd51 69bd 2c28 2ebc
00000250: c694 913c c567 00be ba35 86bc 59e9 4bbd
00000260: db3e 18ba c3df 3ebd 788d 8dbd ba28 79bd
00000270: 7219 8b3d f8ed 7a3d b71e 36bd fa5d 9ebd
00000280: 9e92 203d 7b6d 85bb ca77 023d ffb6 813b
00000290: 4e62 2a3c 9c10 7ebd 027d 9f3c 036a 36bd
000002a0: c791 373d ed1e 48bd bc1d b83c 4c52 2abd
000002b0: 010a 843d 36c4 3b3d 4893 4ebd af41 96bc
000002c0: d234 863d aa8b 11bd 843b aebd b707 053b
000002d0: 514f b03c f60a 843c f036 c23c 5022 a13a
000002e0: 2992 e2bc 9102 40bb bc4f 05bc 73f4 82bc
000002f0: 6f3c 923c ef30 8f3c dea8 083e ba54 0f3d
00000300: e7c4 c5bd 49d6 ef3d 2bb4 4e3d 06f1 e9bc
00000310: 9c2a 2fbd c5af 9e3a 54d6 fbbc 3b52 56bc
00000320: 4ade 48bd 7f1d 513c a63a 663c 43ed 4bbd
00000330: a3aa b63c 6fac 523d 8cb3 74bd 4b5d 253d
00000340: dc1a 94bb 71b5 01bc a848 d23c 6758 d63c
00000350: aa06 24bd 722e b23a bd37 9abd 8ebc 543d
00000360: 2538 fbbc c250 77bc 8213 183d 552f 9d3d
00000370: 2555 dfbc 5026 65bb 8579 863d 4471 24bd
00000380: 6bd6 86bd b878 b1bd 10bb 993d 66f7 25ba
00000390: 3c82 96bd 19fe d2bc c28f 103e 9f99 87bd
000003a0: c903 193d 6c86 8cbd 48eb 483d 8938 793d
000003b0: d6d9 9b3c dbe9 a7bc fa34 af3d db8c 153d
000003c0: 21d0 abbd ee60 543c 9e3a 103d ef0b 3ebd
000003d0: 5d39 923d eec9 d13c b204 acbd 4fb3 253c
000003e0: 7a13 683d 2e70 553d eaec 86bd f78a 2abd
000003f0: 6cca 68bd ee26 4a3d 09ab 9cbd 6f5b b0bd
-0.11684919 -0.01263113 -0.036717243 -0.012910142 -0.012875913 -0.07955768 0.00085808 -0.04911846
-0.009645106 -0.032008287 -0.053402774 -0.028151812 0.06760515 -0.014718657 -0.06261062 0.00836237
-0.03141143 -0.004525227 -0.07377323 0.016660228 0.02971063 -0.03909314 0.0154861845 0.040345572
0.09017112 0.046809588 0.02193544 -0.11992166 0.021050517 0.018287385 -0.067549504 -0.0015839406
0.036870696 0.06666584 -0.07536874 -0.0155326715 -0.020746028 0.0209544 -0.0037768844 0.03131719
0.009441137 0.023611786 0.042364627 -0.036878414 -0.006022075 -0.023666339 -0.050888512 0.065913804
0.11255418 -0.0010039369 -0.050231956 0.008958885 -0.057949994 -0.009197398 0.0070013474 0.033856075
0.029678961 0.06308874 -0.019809902 -0.0206427 0.039374687 -0.034430902 -0.04477265 0.02113931
-0.050588112 0.008497278 0.009977349 -0.039544083 0.06136547 -0.008128584 -0.03480514 0.072149895
-0.0024843714 0.07892895 -0.009322055 -0.007530285 0.03081652 0.007980468 -0.008760902 -0.03077079
-0.02654882 -0.15507276 -0.05508111 -0.09124116 -0.027949192 -0.11075577 -0.017716551 0.10505884
-0.028195878 -0.0028572779 -0.05069994 -0.065858126 -0.038228914 0.04766552 -0.017056206 0.0057318727
0.05553092 0.030389737 0.0050634556 -0.0018118666 0.0037751498 -0.025441257 0.052304536 -0.068267256
-0.052650247 0.025532499 -0.039989404 0.04393847 -0.036573634 -0.04095475 -0.07282144 0.008595849
-0.044543996 -0.019884543 0.066251785 0.0028384456 0.024045942 -0.03365095 0.00036085595 -0.0911754
0.13540637 -0.083242565 -0.036309853 -0.109339125 -0.028619424 0.009697487 -0.13466653 -0.10355005
-0.042834222 -0.006100673 0.0019822663 -0.009052008 0.05053266 0.079435185 0.018176353 -0.05720186
-0.061733343 -0.14185533 -0.0005964842 -0.06387476 -0.02999256 0.040302984 -0.051444247 -0.106572226
-0.0053112158 0.032884102 -0.056962837 -0.010629695 0.017771136 -0.12539585 -0.01638304 -0.049783085
-0.0005807706 -0.046600115 -0.06911749 -0.060829856 0.06791963 0.0612621 -0.044462886 -0.07732768
0.039202325 -0.004071889 0.03185252 0.0039585824 0.010399414 -0.06202756 0.019468788 -0.044534694
0.04481676 -0.048857618 0.022475116 -0.04158239 0.064472206 0.04584142 -0.050433427 -0.018341867
0.065530434 -0.035533585 -0.085074455 0.0020298788 0.021522196 0.016118508 0.023707837 0.0012293551
-0.027657585 -0.0029298405 -0.008136686 -0.015985703 0.017851083 0.017479388 0.13345668 0.03499291
-0.09656697 0.117107935 0.05046479 -0.028557312 -0.042765245 0.0012106827 -0.030741848 -0.013081129
-0.049040116 0.01276338 0.014052069 -0.049786817 0.022298163 0.051433977 -0.05974154 0.040372174
-0.0045198034 -0.007916794 0.02566941 0.0261652 -0.040045418 0.0013594164 -0.075301625 0.051937632
-0.03066642 -0.015094938 0.03712798 0.076750435 -0.02726228 -0.0034965463 0.06566147 -0.04014708
-0.06583866 -0.086656034 0.075063825 -0.0006331116 -0.07349059 -0.025755929 0.14117339 -0.06621098
0.037357125 -0.068615764 0.049052507 0.06084493 0.01902477 -0.020497253 0.08555026 0.036511283
-0.08389307 0.012962563 0.03521215 -0.0463981 0.071398474 0.025608983 -0.08399333 0.010113551
0.0566592 0.052108936 -0.065881565 -0.041636433 -0.05683367 0.049353532 -0.0764981 -0.086111896

conv3.bias f4 [128]
00000000: c1a1 d23b 5947 643d 0544 113d 9c12 1d3c
00000010: ecc1 303c db76 be3c 8e2f 85b9 b704 0cbc
00000020: cc22 bdbc 6f3c 983c c9e5 91bd 1abf a6bc
00000030: 2050 8abc 2d04 013d b5ec 1abd 1cac 12bd
00000040: e8f0 0d3d fcfa 0abc 48c9 bebd 006e 4e38
00000050: 9e17 cbbb e8df 4fbd 9924 963b a678 b03b
00000060: af9a f5bc 0f13 e6bc e1b3 f0bc 7352 123d
00000070: c165 fdbc b623 56bd afb8 133d 874e a4bc
00000080: 29ee 44bd 8039 be3c d0b9 d63c 50c3 b5bc
00000090: 47d9 103d 01b4 07bc 2976 c7bc 759d be3c
000000a0: cc60 60bc 1531 1dbd 1d5e 22bd 8409 fcbc
000000b0: 434d 8d3d c846 103c f5ad 7e3c 97a2 983d
000000c0: a5d9 4cbd aa0d c33c 183e 503d 49e7 033c
000000d0: 1984 c2bc 7c54 393c 83b8 0cbd e4e8 10bd
000000e0: 5b9b 3cbd b790 a13c f822 60bd 6d1f 37bd
000000f0: 6dc5 8ebd 3c03 963d dc1f 11bd 841f 173d
00000100: d1a0 793d c721 46bd aa9f b2bc 8f84 d0bc
00000110: e4c1 533d 2e75 603b 6439 dd3a d2b6 1abd
00000120: e6d6 d5bc e061 dfbc fcbd a73c bfdf 35bd
00000130: b4e1 443d 79ab cd3c 8246 3f3c 12a0 673d
00000140: f371 043d 1b22 9b3d 397e 973d c99b b33d
00000150: cd10 22bc 1288 a43c 051d fe3b 7e2c fbbc
00000160: 2d1b 6dbd c432 833d edbe 6ebd 7ef8 b2bb
00000170: d976 453d 5af1 a0bc b09d da3d c8e5 5cbc
00000180: 9e4a aabd 0b42 393c eb7a 73bc 9b1b 45bc
00000190: 8d5d af3d 7e8c 29bd c4ec 7b3d c74d aebc
000001a0: d73a a43c ccee 023d c8af 503d 131b 8abc
000001b0: 2588 bdbb 48e0 333d 5962 b2bc 1b19 d8bc
000001c0: 691b b73c b066 ab3d 1c21 dbbb 8e17 583d
000001d0: d107 e7bb afa7 973d 5d90 8a3d fc83 2c3d
000001e0: c68d 9a3c fd25 55bd 91b4 293b e1f8 cabc
000001f0: e58a 75ba affd 543c 2b4d 82bd f894 2f39
0.006427974 0.055732105 0.03546526 0.009586956 0.010788422 0.023250034 -0.00025403168 -0.008546046
-0.023087882 0.018583504 -0.07123906 -0.020354796 -0.01688391 0.031498123 -0.037823398 -0.035808668
0.034653574 -0.008482691 -0.09315735 4.9216673e-05 -0.0061978837 -0.050750643 0.0045819995 0.005385476
-0.029980985 -0.02808526 -0.029382648 0.03572316 -0.03093231 -0.05228015 0.0360648 -0.020056976
-0.04807869 0.023220778 0.02621165 -0.022187859 0.03536346 -0.008282662 -0.024348335 0.02326844
-0.013694953 -0.038376886 -0.039640535 -0.030766256 0.06899502 0.008805938 0.015544404 0.074528866
-0.05001225 0.023810226 0.050840467 0.008050748 -0.02374463 0.011311647 -0.03435565 -0.03537835
-0.046046596 0.019722326 -0.05472085 -0.044707704 -0.0697125 0.07324836 -0.035430774 0.03689529
0.060944382 -0.048372056 -0.02180465 -0.025453834 0.05169858 0.0034249532 0.0016878066 -0.037772007
-0.026103448 -0.02726835 0.020476334 -0.044402834 0.04806681 0.025106179 0.011674525 0.05654914
0.032335233 0.075748645 0.07397122 0.08769948 -0.009891701 0.020084415 0.0077549242 -0.030660864
-0.057887245 0.06406167 -0.05828755 -0.0054617515 0.048209045 -0.019646335 0.10674608 -0.0134825185
-0.08315013 0.01130725 -0.014860849 -0.012030507 0.08562765 -0.04139375 0.061505094 -0.021277322
0.020047588 0.031966016 0.050948888 -0.016858613 -0.005784052 0.043915063 -0.021775411 -0.026379159
0.022351937 0.083691955 -0.0066872966 0.05275684 -0.0070504923 0.0740503 0.06765816 0.042118058
0.018866431 -0.05203818 0.002589498 -0.024776878 -0.0009366705 0.012999936 -0.06362375 0.00016744796

fc1.weight f4 [256, 128]
00000000: 0e81 e93d 68c0 a23d 8898 c2bd 5454 0a3e
00000010: 2fb8 bc3d f668 b6bd 5cdc 36bd 35fd 0fbd
00000020: 9c2f ab3d ed1c 033e acdf 06be 0718 6d3d
00000030: b782 143e 1649 013e f152 d93d 19ce 15bd
00000040: fb44 903d 811e 66bc 0aa0 c5bc 6415 27bc
00000050: aff5 a53d 0f92 233c f7a9 af3c cd79 39bd
00000060: 1ed6 693d fcba 87bc 59ae ad3d 537b adbd
00000070: b5db 55bd a21d f4bc e048 9e3d 26cb 4d3d
00000080: 9b6e 443c 1456 05bd a747 cc3d 6aad ea3c
00000090: 5960 4a3d 4c4f 533b 7856 85bd ee78 2fbd
000000a0: aea0 bcbc 1b05 c73b 4665 af3d 1c34 4c3d
000000b0: 6b0d eebd e1a2 933d 4eea f33d e13a 36bd
000000c0: 5665 b53d 2b4e afbc c800 013e 909e 483d
000000d0: 11d7 bebb 35a1 bbbd c0ec 40bd 86f1 ec3d
000000e0: dd51 a23b c345 b93c d372 2a3d 4ab5 563d
000000f0: 73fe bcbd 81d6 a8bc 780b 173d 635b ddbc
00000100: 0a3a 043e bb98 b43c 5783 efbc 50ce c83c
00000110: f6ce 423d 2ae2 bebc 24ee f6bd 76fc 0b3e
00000120: 4752 1d3e 4e2c d83d 03cc be3c 4a4c d53d
00000130: 2b65 8dbc 2609 103e df9c dc3d 7c7f 10bc
00000140: 4941 d63d b0f8 e23c b467 853d 2578 013e
00000150: 78cb 82bd f16d e23d a4c8 733d e045 173d
00000160: 9812 bd3b 166a 99bd ac5b 4c3c 9bfa 94bc
00000170: afcf 8ebc f854 283d bcd3 3abd 911a 273d
00000180: 06d1 46bd b1fa b7bb c546 e6bd 4ae5 6cbc
00000190: 5d78 9fbc d44b ad3d 0cb5 283e cbd7 143c
000001a0: 6863 713d 5284 e73b 8c41 07be ff17 37bd
000001b0: b5b0 343d 1ebe 9cbd 3d7c 603d 2fa3 6cbb
000001c0: 7036 263d 6400 93bd 5080 b13d 542e e2bd
000001d0: 057a ad3b ee92 d3bd d21b 653d a1c3 98bd
000001e0: 2b85 a03d 4251 883d 55c2 66be 18b1 c63d
000001f0: c7f2 d23d 702e d83d 6e75 d3bc 2a1a 9a3d
00000200: 9ef8 56bd 45c1 9ebc 1e7f 1dbb 732c 19bd
00000210: 82f5 21be 38a6 783d 53a7 28bb 8ddd 8bbd
00000220: 6c9b 05be 8bc3 dd3d da9c e33c 6d8b 08be
00000230: f608 be3c 7744 3ebc 7a41 cabc cc76 843c
00000240: d322 1dbe decd 3c3d ab34 c4bc a85e 82bd
00000250: 2b9a 2d3d 4fb3 e53a 1e5d 1fbd 5057 e33d
00000260: 37b6 9bbd 4c0c 823d 9217 b7bd 3502 403d
00000270: 0e76 bcbb a120 d2bd a094 37be e3aa 82bd
00000280: 630b 313b 5d4c d83d 6e33 93bd 16fc 03be
00000290: 453c 53bd 09f4 75bd 1df7 413d 05ab 2d3e
000002a0: 69ef 1bbd 78de a23c bb9c 9c3d 751a fbbd
000002b0: c2ef 893d 94d5 7ebd f437 31bd 5ca7 d53d
000002c0: aed4 2d3d 25cb dcbb 58ab 1bbe 099b 393d
000002d0: 4c9f 93bd 8121 52bd 13a7 833d 27ae 783a
000002e0: e42b 9c3c 596b 2e3d 8e62 a03d bcc3 0cbc
000002f0: fc39 b13c e21a cd3d aab7 4a3a 98e6 3dbe
00000300: 8991 a1bd 7b62 87bd a4b7 923c 3911 cebd
00000310: c338 bc3c 2f4d c1bd 0de3 74bd f2c3 60bd
00000320: e54e a339 cd53 b4bc dd73 97bc e6f7 a73b
00000330: 8285 a03d 8e51 98bd e087 43bd 2ca1 fe3a
00000340: 4a54 17be f2ad 49bd 0734 cdbc 9bd4 efbd
00000350: f79e debd 9ad8 3ebd 3832 c6bd a5ae 50bd
00000360: cbdb 43bd c474 9c3d d1f0 1bbd 06fb 4e3c
00000370: dccb df3d f757 c43d a773 f73c 73e0 8fbd
00000380: 01c3 a6bd a6be b13d 3da9 9e3d 4d64 e5bd
00000390: 15af 983d 3f09 c7bd fc45 fabd bff5 debd
000003a0: 2276 2bbb 92b0 4bbb ed92 beba 09c0 92bd
000003b0: cf4d 8fbd bbe8 863d f546 41bd 9e7a 103d
000003c0: 9661 13bd 4e98 963d 8d1e 59bd 199b ed3c
000003d0: 810a a0bd e99a b53d cedd a5bd d6c9 e43d
000003e0: d518 4ebb f095 88bd c19d a63d 782a 3bbd
000003f0: d620 44bd d151 adbd 2123 a439 2298 a0bd
0.11401568 0.07946855 -0.09501749 0.13508731 0.09214818 -0.089067385 -0.044643745 -0.035153586
0.0835869 0.12804003 -0.13171262 0.057884242 0.14502989 0.12625536 0.10611523 -0.036573503
0.07044407 -0.014045359 -0.024124164 -0.010197971 0.08103501 0.009983554 0.02144335 -0.045282174
0.057088964 -0.016568653 0.0848052 -0.08470788 -0.052211482 -0.029799286 0.077287436 0.050242566
0.011989261 -0.032552794 0.09974604 0.028647143 0.04940829 0.003224331 -0.06510633 -0.042839937
-0.023025837 0.0060736067 0.08564238 0.049854383 -0.11623653 0.07208801 0.119099244 -0.044489745
0.08857219 -0.021399578 0.12597954 0.048979342 -0.0058239778 -0.09161607 -0.047100782 0.115695044
0.0049536065 0.022616273 0.04161341 0.052418984 -0.0922822 -0.020610096 0.03687617 -0.027021116
0.12912765 0.022045484 -0.029237432 0.02451244 0.047560655 -0.023301203 -0.120571405 0.13670525
0.15363418 0.105553254 0.02329064 0.104149416 -0.017260155 0.1406599 0.10772108 -0.008819457
0.10461671 0.027706474 0.065139204 0.12643488 -0.06386465 0.11056126 0.059517518 0.036931872
0.005770039 -0.074909374 0.012473028 -0.018185904 -0.017433016 0.041096658 -0.045612082 0.04079682
-0.048539184 -0.0056146015 -0.11243967 -0.014458964 -0.019466573 0.08461729 0.16475314 0.009084652
0.05893269 0.0070653344 -0.13208598 -0.04470062 0.044113833 -0.076534495 0.054805983 -0.0036108007
0.04057926 -0.07177809 0.08667052 -0.11043993 0.005294087 -0.10330759 0.055934735 -0.07459188
0.078379 0.06656124 -0.2253507 0.09701747 0.10300212 0.10555732 -0.02581283 0.07524522
-0.052483194 -0.019379267 -0.0024032067 -0.037395906 -0.1581631 0.060705394 -0.0025734499 -0.06829367
-0.1304757 0.108283125 0.027784754 -0.13334437 0.023197632 -0.011613003 -0.024689425 0.016169928
-0.15345316 0.046094768 -0.023950895 -0.063657105 0.042383354 0.0017524752 -0.038907163 0.11100638
-0.07603114 0.06350002 -0.089400426 0.046877105 -0.005751378 -0.1026013 -0.1792779 -0.0638025
0.0027014844 0.1056144 -0.07187544 -0.12889132 -0.05157115 -0.060047183 0.047354806 0.1695977
-0.038070116 0.019881472 0.076470815 -0.12260906 0.06735183 -0.062215403 -0.04326625 0.10432312
0.042439155 -0.006738084 -0.15202081 0.04531387 -0.07208118 -0.051301483 0.06428351 0.00094864
0.019063897 0.042582843 0.07831298 -0.008591589 0.021634094 0.10014893 0.00077330566 -0.18544996
-0.07889087 -0.066105805 0.017909832 -0.10061879 0.022976285 -0.0943855 -0.059786845 -0.054874368
0.00031148564 -0.022012616 -0.018487865 0.0051259873 0.078379646 -0.0743743 -0.047737002 0.0019426695
-0.14778247 -0.049238153 -0.025049223 -0.11710473 -0.10870164 -0.046593286 -0.09677547 -0.050947804
-0.047817033 0.07639459 -0.038071457 0.012633091 0.10927555 0.095870905 0.030206515 -0.07025232
-0.08142663 0.086789414 0.077471234 -0.112007715 0.07455269 -0.097185604 -0.1222038 -0.10886716
-0.0026162942 -0.0031080586 -0.0014539637 -0.07165534 -0.06997263 0.065873586 -0.04718681 0.035273187
-0.035981737 0.073532686 -0.05300765 0.02900462 -0.078145035 0.088674374 -0.080989465 0.1117131
-0.0031447907 -0.06669223 0.08135558 -0.0456948 -0.047882877 -0.08462871 0.0003130669 -0.07841517

fc1.bias f4 [256]
00000000: e7c4 13bd 61d5 0e3e dc72 233d 5e16 7e3c
00000010: ef1c a7bd 99c5 943d bbb6 ca3d 03cc d53d
00000020: cac6 5ebd 336d ceba ba56 f5bd b428 85bc
00000030: 7d46 593d 1c46 a23c d9c3 243d 27b0 633d
00000040: 293e 83bd 9825 85bb 544d 913d 7277 56bd
00000050: 5ada 2b3e c17f 0e3e 9bb3 22bd 4b73 b7bb
00000060: a734 833d 7483 8a3d b116 783d b90a 093e
00000070: 4c8d 1f3d f721 66bb 059d 5fbc 2827 ae3d
00000080: c383 d63d 9e28 193d 24d1 043c a11e e33d
00000090: 84b3 953d ad98 41bd bb10 eb3c cc3d e83c
000000a0: f56d 53bd 64fc a73d 1c7d 973d c934 ff3d
000000b0: b87c a93d 1d64 5ebd d877 083e b331 883d
000000c0: 2dfe 1a3d ce5b 56bd 8756 073e 4d31 ce3c
000000d0: bf98 f23c 9b1a 3a3d efe0 053e d729 363d
000000e0: 6e83 8c3d f4e7 f5bb 4f15 023e 6c4a 053e
000000f0: 6eb4 093e 8f61 3dbc 7b63 943d 95c0 d93d
00000100: c8aa 0d3c b21a 213e b313 64bd fadc bc3d
00000110: 2cd8 22bd 6eea 8f3d 3819 8dbb ced3 9f3d
00000120: 98cf 5cbd ffa4 2c3e f3d1 993c eab2 d63c
00000130: 13b5 de3d 2634 c0bd f4ff 693d c8a2 d83d
00000140: 94d6 d13d b0d1 633d e6bd 163d ecb4 413d
00000150: ef6c 733d 7618 033e 1a13 2e3d 7738 063e
00000160: c10c a7bd 6159 e43b 6d15 293d a957 ae3d
00000170: 4407 b43d 8da8 3d3d 2a5e a83d 7c4c 85bc
00000180: e5ee 7d3c fff0 7e3d 9d28 b3bd 3452 083e
00000190: 0d1b e43c 1ff6 1dbd 271d c63d 456c 403d
000001a0: 586c 043e ee76 833c 8963 533d 5e94 6ebc
000001b0: 395e 9d3d e1e6 52bd e125 8d3d 5b0b 46bd
000001c0: c01f cd3d 24e4 643d 029f 6f3d 8392 393d
000001d0: e212 893d cf69 79bc 45ab e3bd 1292 8f3d
000001e0: 14ab fdbc fabd e6bc f3a4 013e d4a0 9d3c
000001f0: de96 7f3d 1364 a63d c1a5 75bd b3e2 243d
00000200: f2c1 9d3d 3402 013e 5acb da3d 2ed1 1f3e
00000210: 909f 953d 4150 8d3b 1721 d03d 00a4 b13d
00000220: d79f dd3d fd40 ce3d febe b73d 22cb 2b3b
00000230: 0114 b73d c874 413d d92b 073e 4538 38bd
00000240: 13c7 413d 1734 26bd fd20 d03c ed04 a03d
00000250: 4964 5a3d 6604 123e 2905 a7bd c7d8 793c
00000260: 6747 113e ac30 4d3d 806d 953d a983 e63c
00000270: c2e1 433d 42d1 df3c 56be 043d b44a 6c3d
00000280: 2c9c d63b 7639 a73d 5916 373d f4cc ed3d
00000290: 14f2 c93d 3e73 6b3d a645 a93d 28f4 033e
000002a0: 0000 f4bc 29df 64bd faa6 513d 85d3 dcb8
000002b0: 6542 1f3e f1c5 0f3e 80ed 9d3d 4cb5 803d
000002c0: 9611 c93c f8bb 32bd d5d4 e23c 53d0 9b3d
000002d0: d54e 9b3c 5562 e8bd 999d d43d 5c55 e43d
000002e0: 056a 81bd 9f39 a03d 10d9 c53c fc41 273e
000002f0: 2a1f 873d 879d f03d 311d ee3d 2edf e43d
00000300: fb24 853d 63df b73d 01ed 21bd 917e 213e
00000310: 02fb 163e 706e 163e 8f7f b03d ac12 db3d
00000320: 3a76 0bbd 975a 143c e988 e9bb d913 be3d
00000330: 693a 913d 67cd cd3d 6345 adbd 374d 883c
00000340: c113 af3d 8569 083e 5b1f ec3c 2e3d 043e
00000350: 6790 043c e941 fa3d 4378 8cbd 7841 cabd
00000360: 634f 893d f5fa 163c db12 433d f092 d43d
00000370: 757d 0f3b 154a be3c 13db 113e 14bd f53c
00000380: 2d21 823d 353c dabd 4a4c a9bd fb3f bd3d
00000390: 3f91 c93d e184 163c f558 0c3e 9eec 2d3d
000003a0: cc98 c83d bde2 e93d 5f2d d73d 2c4b c03c
000003b0: 5df7 d03d b33f 04be 996e cb3d c2d3 54bd
000003c0: e04b 92bd 3629 8f3d 5b44 27bd 5fa3 e33c
000003d0: 8c6e 193e 688a 013e 5c94 55bd c748 083e
000003e0: 2d56 3e3d d1ce 6bbd 1da5 a63d d0fd c6bb
000003f0: f292 c63d 799d dd3d a362 773c 80c5 a7bd
-0.036076453 0.13948585 0.03990446 0.015508262 -0.081598155 0.07264251 0.09898134 0.10439303
-0.0543888 -0.0015749097 -0.119794324 -0.01625476 0.05304574 0.019808821 0.040225837 0.055587914
-0.064083405 -0.0040633194 0.07094827 -0.052360006 0.16782513 0.13915922 -0.039722066 -0.005598461
0.06406527 0.06763354 0.060568515 0.13382997 0.03895311 -0.003511546 -0.013648276 0.08503562
0.1047435 0.03739225 0.008106504 0.110898264 0.073096305 -0.047264744 0.028694501 0.02834978
-0.051618535 0.082024366 0.073969096 0.1246124 0.08275741 -0.054294694 0.13326967 0.066501044
0.037840057 -0.052333646 0.13216601 0.025169993 0.02961385 0.04543553 0.13074087 0.044473495
0.06861006 -0.0075044576 0.12703441 0.13016671 0.13447735 -0.011558904 0.07245537 0.10632435
0.008646674 0.1573284 -0.05568285 0.092218354 -0.03975694 0.07027136 -0.004305985 0.078040704
-0.053908914 0.16859816 0.01877687 0.02620836 0.10874381 -0.093849465 0.05712886 0.10577923
0.10246006 0.055619895 0.036802195 0.04729168 0.05943006 0.128023 0.042498685 0.13107477
-0.081567295 0.0069686626 0.0412802 0.085128136 0.08790448 0.04630332 0.08221085 -0.016271822
0.015498851 0.06224155 -0.08747981 0.13312608 0.02784493 -0.038564797 0.09673529 0.046978254
0.12931955 0.016047921 0.051608596 -0.014561741 0.07683987 -0.051489715 0.068919905 -0.048350673
0.100158215 0.055881634 0.05850125 0.04530574 0.06693055 -0.015222981 -0.111166514 0.070102826
-0.030965365 -0.02816676 0.1266058 0.019241728 0.062399738 0.081245564 -0.05997253 0.04025526
0.07703008 0.12598497 0.106833175 0.1560714 0.07305825 0.0043125455 0.101625614 0.08673859
0.10821503 0.10070989 0.08971976 0.0026213606 0.08939362 0.047230512 0.1320032 -0.044975538
0.047308993 -0.04057702 0.025406355 0.078134395 0.053318296 0.1425949 -0.08155281 0.015249438
0.14187394 0.050095245 0.07296276 0.028138952 0.04782272 0.027321462 0.03240808 0.05768843
0.006549379 0.08165257 0.044699047 0.11611357 0.09860626 0.05748295 0.082652375 0.12886107
-0.029785156 -0.055876885 0.051184632 -0.00010529816 0.15552671 0.14040352 0.07711315 0.0628458
0.024544518 -0.043636292 0.027689377 0.07608094 0.018958488 -0.1134688 0.10381622 0.111490935
-0.0631905 0.0782349 0.024151355 0.16333765 0.06597741 0.11748796 0.116266616 0.11175381
0.06501194 0.089781545 -0.039532665 0.15770938 0.1474419 0.14690566 0.0861808 0.10696921
-0.034048297 0.009054801 -0.0071269167 0.092811294 0.07091219 0.10048943 -0.084605 0.016638381
0.0854869 0.13321503 0.028823545 0.12913963 0.008091069 0.122196026 -0.068588756 -0.098757684
0.06704595 0.009215106 0.047625404 0.103795886 0.0021894847 0.023228684 0.14243726 0.029997386
0.06353984 -0.10656015 -0.08266504 0.09240719 0.098421566 0.009186954 0.1370581 0.042461984
0.09794769 0.114202 0.10506701 0.023473345 0.10203431 -0.12914924 0.09933204 -0.05195976
-0.07143378 0.06990282 -0.040836673 0.027787862 0.14983577 0.12650454 -0.05214344 0.13309012
0.046468902 -0.057570282 0.081369616 -0.0060727373 0.09695996 0.10821051 0.0150992 -0.08191967

fc2.weight f4 [2, 256]
00000000: 2e1d dc3b 016b 2bbd 19e4 adbd 52bd d13d
00000010: c77a 1abc ca3d aa3d 8a97 05be 187c 04be
00000020: 5c13 b63c 4a2c 98bd 8696 4dbd b1e5 98bd
00000030: 2629 9dbd 1bc5 da3c 952f d33d d23e 27be
00000040: 7b25 ff3c 14a7 8f3d 8917 d0bd 8cc8 a23d
00000050: b072 2bbe 9550 d6bd ec70 323b 5a27 8c3d
00000060: 44eb f13d c300 c4bd 40a0 ebbd 648e d8bd
00000070: 8f9e 663d cc78 9a3d a41d a53d d4a0 78bd
00000080: 1f3d 2ebe 8a8b 14be 1400 a13d d4b9 0fbe
00000090: a0ab a63d 7d18 223d 8a59 593d 2176 223d
000000a0: e639 233d 8900 583e 3233 fdbd 7ebf 69bd
000000b0: c2de 0bbe 57d5 a23d 513f 0cbe 38e3 b03d
000000c0: f4c7 c93d 16da 7cbd 052e d1bd 2a95 ed3d
000000d0: 49e1 ec3d 4fc6 c03d d921 9abd fcf4 0cbe
000000e0: bc88 efbd fe83 9b3d 8e69 eebd 4c63 c0bd
000000f0: ce87 04bd 0b21 84bd b543 373e 22c5 e3bd
00000100: c702 083d c2e9 03be 7188 15bc 825f c8bd
00000110: 7867 143d a62b 0e3e bdf5 773d 986a 07be
00000120: d6da d43c 5f2f 8bbd bfc2 59bd 9d2f 973d
00000130: 5d2e bdbd 530c 6a3c 9c2b 873d 14cd f9bd
00000140: e805 34be 6c2d aa3d a199 e93d b909 103e
00000150: 0504 b83d 1bb7 f4bd 4238 a63d bd0c 2bbe
00000160: f251 7d3d 45a1 9d3c 204e 873d b7f9 23be
00000170: 2804 eabd b4f7 ebbd 9078 07be a1be ec3d
00000180: a82f d3bd 0fa7 0dbe 0a21 b33d 6b89 84bd
00000190: 6ada bb3d ffe2 f23c 320b eebd ffdd 31be
000001a0: 97e0 24be 0ff1 4e3d 9da3 813d 7e09 153d
000001b0: 63d9 f8bd 43ca 0abd 403b 593d d986 7b3d
000001c0: b231 1bbe f7a9 fd3d 29af 933d 0112 643d
000001d0: 6542 cb3d 54b3 903d 943a bb3c fd36 a93d
000001e0: c3b6 d33d ef25 df3d 917d 6abd 7bb4 f63c
000001f0: 4e46 e73d 2400 10be 632b 943d ba5f e73d
00000200: 7a22 84bd 2013 e6bd ea4c d1bd a954 ffbd
00000210: 254b d4bd ab06 943d eb85 86bd a476 febd
00000220: c16a bebd 9c0f c2bd ab49 113e 380b f6bd
00000230: 74fd 063e c6d0 38be 2423 c9bd baf9 5a3d
00000240: 5fdb c63d 133e 163d 8e39 b43d ff91 d63d
00000250: 92d5 a8bd f6aa e5bd 828b 613d 07ce e43d
00000260: f25f b7bd bd8e dd3d 9022 b5bd e985 4b3d
00000270: db55 d63d f432 c2bd dcc2 4d3d d615 f1bd
00000280: 7309 6d3c faa2 62bc 5def 063e cdbf 45be
00000290: 024b 10be 631d 03be 5ec6 9ebd 4b36 38be
000002a0: 05ec c03d 69fc 873c a243 91bd 079f b43d
000002b0: e106 d9bd df20 08be edb8 96bd 0ae9 4c3e
000002c0: 5edc b93d de31 e63b 1dbd 8c3d 2628 26be
000002d0: cdac 093e 3609 a3bc 4cbb 37be 272d 14be
000002e0: 38f3 debd c746 ecbd 4910 dc3d b496 9bbd
000002f0: 6603 b1bd 9923 69bd 6f26 07be ac64 11be
00000300: c35d 00be 3abb 45be 0a42 253c c4ed 0abe
00000310: 1341 03be ddd0 06be ac6b 21be 5b7b eabd
00000320: ccba 0fbd dcc9 633d db7d 533c 33e6 4e3e
00000330: 1afc d3bd 4cb7 23bd 6f79 a03b e66d ba3d
00000340: 294a 6bbd 36c8 34be 139a f4bd c88c 3cbe
00000350: b35f 4e3d 0273 fb3d f65e 903d 1064 56bd
00000360: d2b1 10be ef63 d83d 363d bebd ab97 34be
00000370: 580f f33d 803c c23d c9c8 33bd ac45 22be
00000380: 69e9 f0bd 819c 7e3b aaf9 f83c 530d 23be
00000390: d43e 13be acc2 f13d ab6e e4bd 500b 10be
000003a0: cf47 acbd 7a35 29be 7f9b 03be 3e3d a63d
000003b0: 48de dfbd 5da4 033c 3d9d 18be b1e9 273d
000003c0: ff25 04bd 353a 21be 607d a73d 5238 5f3d
000003d0: 6873 41be eb1f e4bd eca3 873d 6449 38be
000003e0: 4112 063e c25f b33c 16b3 5cbd 5b18 3f3d
000003f0: de92 0abe e2d4 b9bd fb47 6e3d 7537 ba3d
0.0067173457 -0.041850094 -0.08490772 0.10241188 -0.009428686 0.083125666 -0.13046089 -0.12937963
0.022226028 -0.074303225 -0.05019238 -0.07465685 -0.07673864 0.026705315 0.1031181 -0.16332558
0.031145802 0.070142895 -0.10160739 0.079484075 -0.16742969 -0.104645886 0.0027227951 0.06843443
0.118124515 -0.09570458 -0.11505175 -0.10574034 0.056303557 0.075425714 0.08062294 -0.060700253
-0.17015503 -0.14506355 0.07861343 -0.14035732 0.081382036 0.039574135 0.053063907 0.039663438
0.039850138 0.21093954 -0.1236328 -0.057067387 -0.13659194 0.079508476 -0.13696028 0.086370885
0.09852591 -0.06173142 -0.10213856 0.116007164 0.11566407 0.09412824 -0.07525987 -0.13765329
-0.11696002 0.07593535 -0.11641227 -0.093939394 -0.032356076 -0.06451615 0.17896922 -0.111215845
0.033205774 -0.1288214 -0.009126768 -0.09783842 0.036231488 0.13883838 0.06053709 -0.13224256
0.025983255 -0.06796145 -0.05316424 0.073821284 -0.09237359 0.014285165 0.06600115 -0.12197319
-0.17580378 0.08309445 0.114062555 0.14066209 0.08985142 -0.11948987 0.08116199 -0.16704078
0.061845727 0.019241938 0.06606698 -0.16013227 -0.11426574 -0.11521855 -0.13229585 0.11559797
-0.10311824 -0.13833259 0.08746536 -0.06471523 0.091725186 0.029649256 -0.11623229 -0.17369841
-0.16101299 0.05052286 0.06330035 0.036386006 -0.12150838 -0.033884298 0.05303502 0.061407898
-0.15155676 0.12385934 0.072111435 0.055681232 0.09924773 0.07065454 0.02285508 0.08262441
0.103375934 0.10895907 -0.057248656 0.030115357 0.112927064 -0.14062554 0.07234838 0.11297555
-0.064518884 -0.112341166 -0.10219748 -0.124673195 -0.10365895 0.07227834 -0.065685116 -0.12424973
-0.092977054 -0.094756335 0.14188258 -0.120138586 0.13182622 -0.18048391 -0.09821156 0.053460814
0.097098105 0.036680292 0.0880004 0.10477065 -0.0824386 -0.11214249 0.055064686 0.11172109
-0.08953847 0.10818241 -0.08844483 0.049688254 0.104655944 -0.09482375 0.05023466 -0.11771743
0.014467585 -0.013832802 0.13177247 -0.19311447 -0.14091113 -0.12804179 -0.07752679 -0.17989461
0.09420017 0.01659985 -0.07092978 0.088193946 -0.10597015 -0.1329379 -0.073594905 0.20010772
0.09075235 0.0070249876 0.06872008 -0.16226253 0.13444825 -0.019901853 -0.17942542 -0.14470349
-0.10886234 -0.11536937 0.10745294 -0.07597104 -0.08643226 -0.056918714 -0.13198255 -0.1419856
-0.12535767 -0.19309703 0.010086546 -0.13567263 -0.12817793 -0.13165613 -0.1576373 -0.114493094
-0.035090253 0.05561243 0.012908424 0.20205002 -0.10350819 -0.039969727 0.0048972885 0.09102993
-0.05744377 -0.176545 -0.1194345 -0.18413079 0.050384235 0.122777954 0.07049362 -0.05234152
-0.14130333 0.10565936 -0.09289019 -0.17635982 0.11868161 0.09484196 -0.043892656 -0.1584689
-0.117632695 0.0038850608 0.030392487 -0.15923052 -0.14379436 0.11804709 -0.11153921 -0.14066815
-0.08412134 -0.16524306 -0.12852286 0.0811715 -0.10931069 0.008034793 -0.14903732 0.04099435
-0.0322628 -0.1574486 0.0817821 0.05449707 -0.1889168 -0.111389 0.066230625 -0.17996746
0.13092901 0.021896247 -0.053881727 0.046654087 -0.13532588 -0.09073807 0.058174115 0.09092609

fc2.bias f4 [2]
00000000: 7fa8 a8bd 3075 4e3d
-0.08235263 0.050404727
